lora/best_lora_model.pt (torch, 138659 bytes, 16 tensors)

blocks.0.attention.w_q.lora_A f4 [8, 256]
0	0xbd436ebb	-0.047713023
1	0xbd6cc0b2	-0.057800956
2	0x3c425634	0.011861373
3	0xbd1c1c78	-0.038113087
4	0x3c296c96	0.01034083
5	0x3d26105a	0.040542938
6	0x3d3f2ba0	0.046672463
7	0x3c3d9cb7	0.011573008
8	0xbd628fbc	-0.055312857
9	0xbc7b2786	-0.015329247
10	0xbc9dfcce	-0.019285586
11	0xbd22094c	-0.039559647
12	0x3d3ba271	0.045809213
13	0xb8fd6199	-0.00012082159
14	0x3d5fb684	0.05461742
15	0x3d7393b4	0.059467033
16	0x3b6550f6	0.0034990883
17	0xbca8534e	-0.020547535
18	0xbd5b3fe8	-0.053527743
19	0xbad977ca	-0.0016591486
20	0xbc0e9064	-0.008701418
21	0x3d29ca0a	0.041452445
22	0x3d145797	0.036216345
23	0x3c9a3faa	0.018829186
24	0xbd60395c	-0.054742202
25	0x3d09edf4	0.033674195
26	0x3d33829a	0.043825723
27	0xbc67f601	-0.014157773
28	0x3c8ec0d0	0.017425925
29	0xbd632e38	-0.055464
30	0x3d32b3a6	0.043628357
31	0x3be8ed28	0.0071083494
32	0xbd5b33b5	-0.05351611
33	0xbc8b74dd	-0.017023498
34	0x3ce829e5	0.02834029
35	0xbc7e7f3d	-0.015533266
36	0xbd3f4d0f	-0.04670435
37	0xbd42e1ac	-0.0475785
38	0xbcc953bf	-0.024576066
39	0x3cf3def7	0.029769404
40	0xbb9d1915	-0.00479425
41	0x3c4d4b03	0.012530091
42	0xbd07e03c	-0.03317283
43	0xbcba246a	-0.022722442
44	0xbd5cd34d	-0.05391245
45	0x3c5b29ce	0.013376666
46	0xbd6d080e	-0.05786901
47	0x3d76b91c	0.060235128
48	0xba563b76	-0.00081723125
49	0xbd2af8ef	-0.041741308
50	0xbd059e16	-0.032621466
51	0xbc074066	-0.0082551
52	0x3c2a28dc	0.010385718
53	0x3d298d43	0.041394483
54	0x3aee08b7	0.0018160556
55	0xbc5dc84b	-0.013536523
56	0x3ccda8aa	0.02510484
57	0xbd43e3fc	-0.047824845
58	0xbc81b123	-0.015831536
59	0xbc45488e	-0.012041224
60	0x3c4d631e	0.012535838
61	0x3c2405ce	0.01001115
62	0xbd212579	-0.039342377
63	0x3a4c5943	0.00077952835
64	0x3c45f556	0.012082418
65	0xbc33d82e	-0.010976834
66	0x3b81e998	0.003964614
67	0xbd19917d	-0.037492264
68	0xbd0a7baa	-0.03380934
69	0x3cac4319	0.021028088
70	0x3d3eb382	0.04655791
71	0x3d238887	0.039925124
72	0x3d67376a	0.05644933
73	0x3cff4df6	0.031165104
74	0xbd64fe1f	-0.05590641
75	0x3d6f83f6	0.058475457
76	0xbd155720	-0.036460042
77	0x3ba02306	0.0048869876
78	0x3abee73f	0.0014564766
79	0xbd1a59c7	-0.037683275
80	0xbd461f20	-0.048369527
81	0x3cd99911	0.026562246
82	0xbcbe0b46	-0.023198735
83	0x3c02832a	0.007965842
84	0xbc4eb34e	-0.012615992
85	0xbcfceba2	-0.030874077
86	0xbc96ee57	-0.018424196
87	0x3d41c4e0	0.047306895
88	0xbd510606	-0.051031135
89	0xbccee1b7	-0.025254114
90	0x3a43f5da	0.00074752944
91	0x3b9c7527	0.004774708
92	0xbb9717b5	-0.0046109804
93	0x3cd3c254	0.025849499
94	0x3d1ba62e	0.03800028
95	0x3d65879a	0.056037523
96	0x3d2e2874	0.042519048
97	0xbd502740	-0.05081868
98	0xbd41e956	-0.047341667
99	0x3c61acde	0.013774125
100	0x3d4e9692	0.050436564
101	0x3c922822	0.017841402
102	0xbd2cf666	-0.04222717
103	0xbd1cbc70	-0.038265646
104	0xbd44a95e	-0.048013084
105	0xbd6fee02	-0.05857659
106	0x3c957a5e	0.018246826
107	0x3cc21709	0.023692625
108	0xbd470943	-0.048592817
109	0x3d4afdaa	0.04955832
110	0xbc625836	-0.013814976
111	0x3d7e8300	0.06213665
112	0xbba4e66a	-0.0050323503
113	0xbb24f6e9	-0.0025171584
114	0xbcbbd7b6	-0.022930007
115	0x3b198d28	0.0023430083
116	0xbd7d48bc	-0.061836943
117	0xbcea862d	-0.028628433
118	0xbc0be41d	-0.008538273
119	0x3cac74a2	0.021051709
120	0x3b106fb4	0.0022039237
121	0xbcf923f9	-0.03041266
122	0xbd536bc4	-0.051616445
123	0xbc6db836	-0.014509251
124	0x3d4e3d45	0.0503514
125	0x3d1964d7	0.037449684
126	0x3d29d99e	0.0414673
127	0xbccc69fd	-0.024952883
128	0xbd7fa545	-0.062413473
129	0x3d1ea755	0.0387338
130	0xbc86f2a7	-0.016473128
131	0x3d28b78c	0.04119067
132	0xbd7874d4	-0.06065829
133	0xbc3a795d	-0.011381474
134	0xbd44f830	-0.048088253
135	0x3cc4b4d6	0.02401201
136	0xbd5f5e66	-0.054533385
137	0xbceaf4e9	-0.028681235
138	0x3cb81346	0.022470128
139	0xbcdf4614	-0.027255096
140	0xbd13cea7	-0.03608575
141	0x3cd6a012	0.026199374
142	0x3c58c048	0.013229437
143	0x3ca33d77	0.01992677
144	0x3c8c0ffe	0.01709747
145	0x3d66c7da	0.056342937
146	0xbb700454	-0.0036623674
147	0x3d3f133c	0.046649203
148	0x3d46af6e	0.048507147
149	0xbd03cf92	-0.032180376
150	0xbcffc1b4	-0.031220295
151	0xbd25e04e	-0.040497117
152	0x3d08b5ae	0.03337639
153	0x3ba1de01	0.004939795
154	0x3d6d47f3	0.057929944
155	0xbc706401	-0.01467228
156	0xbd34dd9c	-0.044156656
157	0xbd69d847	-0.057091024
158	0xbc041dbc	-0.00806373
159	0x3d23b916	0.039971434
160	0x3c8a9aa5	0.016919443
161	0x3d48e00a	0.049041785
162	0xbd565108	-0.05232337
163	0xbc851988	-0.016247526
164	0x3d5aa440	0.053379297
165	0xbc83d7be	-0.016094085
166	0xbd08946a	-0.033344664
167	0x3d29435a	0.041323997
168	0xbb98ca37	-0.0046627778
169	0x3c79a812	0.015237825
170	0xbd3e2db0	-0.04643029
171	0x3d5ecbd3	0.0543936
172	0xbd2bf42e	-0.041980915
173	0x3cdc74e2	0.026911203
174	0xbd69738f	-0.05699497
175	0xbb973631	-0.0046146144
176	0xbd60fa74	-0.05492635
177	0xbd658cc2	-0.05604244
178	0xbd42e456	-0.04758104
179	0xbcc9abce	-0.024618056
180	0x3d3a4ef4	0.04548545
181	0x3c5a44ae	0.013322039
182	0x3d583dae	0.052793197
183	0x3d0f58a8	0.03499666
184	0x3cf33606	0.029688846
185	0xbd4732ba	-0.04863236
186	0xbd405d2e	-0.046963863
187	0xbb518e8f	-0.003197584
188	0x3d2b6d85	0.041852493
189	0x3c9eb3ca	0.01937284
190	0x3d4e2748	0.05033043
191	0xbd40b020	-0.047042966
192	0xbc814fc6	-0.01578511
193	0xbd2a8c94	-0.041637972
194	0xbd17ce24	-0.037061825
195	0xbd3b6840	-0.045753717
196	0xbcf88319	-0.03033595
197	0xbc2742fe	-0.010208843
198	0x3d4ff066	0.05076637
199	0xbd71a86d	-0.058998514
200	0xbcdaceba	-0.026709903
201	0x3c7596f2	0.014989601
202	0xb9f077cb	-0.0004586562
203	0x3caba2d2	0.020951662
204	0xba5e715c	-0.000848552
205	0x3d516028	0.051117092
206	0xbc64880b	-0.013948451
207	0xbcb3d437	-0.021951778
208	0x3c86450c	0.016390346
209	0x3c7f271a	0.015573287
210	0x3c23fb44	0.010008637
211	0x3d763fdc	0.060119495
212	0x3c8bf312	0.017083678
213	0xbd38b0a3	-0.04509033
214	0xbb359109	-0.0027704856
215	0xbc6722e6	-0.0141074415
216	0x3c9dfe78	0.01928638
217	0x3cfced99	0.030875014
218	0x3d56ee5a	0.052473404
219	0x3b18e35c	0.0023328876
220	0x3d0f183c	0.03493522
221	0xbcecbf63	-0.028899854
222	0xbc1ae01f	-0.009452849
223	0x3d5b8283	0.053591263
224	0xbcdc6a5c	-0.026906185
225	0x3d493a34	0.049127772
226	0xbd313304	-0.043261543
227	0x3cd5638c	0.026048444
228	0xbc14f986	-0.009092694
229	0xbb33d2f2	-0.0027438966
230	0xbce7b622	-0.02828509
231	0x3cdd7aee	0.027036157
232	0x3b940aa3	0.0045178696
233	0xbd4e550a	-0.05037407
234	0x3d223f0a	0.0396109
235	0xbbd4ea49	-0.0064976555
236	0xbd667f6a	-0.056273855
237	0xbd09f940	-0.03368497
238	0xbd169b98	-0.03676948
239	0x3d00e564	0.031468764
240	0xbcdb014f	-0.026734022
241	0x3d3fa340	0.046786547
242	0xbcde3ea9	-0.027129488
243	0x3d2d6e3a	0.04234145
244	0xbcc309d0	-0.02380839
245	0x3b506882	0.0031800573
246	0x3c501e01	0.012702466
247	0x3d60070e	0.054694228
248	0xbb0a6ca9	-0.0021121895
249	0x3ca6f552	0.02038065
250	0x3d7fb158	0.062424988
251	0xbd4306d8	-0.04761395
252	0xbd509972	-0.050927587
253	0xbd1d7644	-0.038442865
254	0x3c884d10	0.016638309
255	0x3ce92746	0.02846111

blocks.0.attention.w_q.lora_B f4 [256, 8]
0	0x364f6cbb	3.0908693e-06
1	0x364abf54	3.0211713e-06
2	0xb61bd908	-2.3223129e-06
3	0xb7aefdad	-2.0860543e-05
4	0xb6684e69	-3.4616335e-06
5	0xb5c435ef	-1.4618835e-06
6	0xb5c30df3	-1.4532692e-06
7	0x360d8ef0	2.1093838e-06
8	0xb814280b	-3.5323243e-05
9	0xb793db64	-1.7625927e-05
10	0xb6206cd2	-2.39052e-06
11	0x38a4f8ae	7.8664496e-05
12	0xb806240f	-3.198167e-05
13	0x37a1e308	1.9298415e-05
14	0x3783c647	1.5708747e-05
15	0xb7476fd0	-1.1887358e-05
16	0xb72fcc33	-1.0478357e-05
17	0xb5e8eb7a	-1.735388e-06
18	0xb6ab4669	-5.104394e-06
19	0x37dfee50	2.6694644e-05
20	0xb645810f	-2.943041e-06
21	0x370ffe45	8.582666e-06
22	0x364b21ba	3.0268989e-06
23	0x3638ef7b	2.7557533e-06
24	0x36624017	3.371393e-06
25	0x35dc2c84	1.6404233e-06
26	0x35778cb2	9.221941e-07
27	0xb6048980	-1.9749568e-06
28	0xb676c4bb	-3.6771369e-06
29	0xb7761fc6	-1.467014e-05
30	0x35fc53d0	1.8799856e-06
31	0x36d4c224	6.3406933e-06
32	0xb75c57ce	-1.31334655e-05
33	0xb703e9ce	-7.862645e-06
34	0xb6a9335b	-5.042571e-06
35	0x378b143f	1.6579519e-05
36	0xb54f1112	-7.713835e-07
37	0x375940ff	1.2949341e-05
38	0x36ba62ac	5.554719e-06
39	0xb72fbf57	-1.0475363e-05
40	0x36f35541	7.251889e-06
41	0xb4d4b143	-3.9617052e-07
42	0xb6ac032f	-5.12637e-06
43	0xb7418a1c	-1.15358525e-05
44	0x36f205a2	7.2128178e-06
45	0xb5d7e0d8	-1.6084186e-06
46	0xb5db741c	-1.6350564e-06
47	0x351aea14	5.77101e-07
48	0xb809205e	-3.269349e-05
49	0xb7c5ffd4	-2.360336e-05
50	0xb72734ff	-9.966315e-06
51	0x388a8b30	6.6062785e-05
52	0xb78caeb4	-1.6770653e-05
53	0x379f8e14	1.9020437e-05
54	0xb6beea15	-5.689692e-06
55	0xb747a74c	-1.1900276e-05
56	0xb78232a2	-1.5520785e-05
57	0xb78154a1	-1.5417407e-05
58	0xb785aa87	-1.5934243e-05
59	0x3807778d	3.229785e-05
60	0xb71123d0	-8.651012e-06
61	0x37535b1c	1.2597793e-05
62	0xb69c043b	-4.649655e-06
63	0xb5390b06	-6.893391e-07
64	0xb7fb880a	-2.998488e-05
65	0xb7f18e97	-2.8795837e-05
66	0xb7ed486f	-2.8286331e-05
67	0x3899f98e	7.342092e-05
68	0xb8017d17	-3.0872496e-05
69	0x37a52af2	1.968953e-05
70	0x3699b595	4.5808943e-06
71	0xb75c9736	-1.3148228e-05
72	0x35ecfc6b	1.7656834e-06
73	0xb698e8ab	-4.557039e-06
74	0xb75aee8d	-1.30493545e-05
75	0xb7185a5b	-9.0809435e-06
76	0x37079bda	8.082914e-06
77	0x373730aa	1.09189805e-05
78	0xb72721c1	-9.961835e-06
79	0x368073f9	3.8281983e-06
80	0x366ffa46	3.5759454e-06
81	0xb6c300e1	-5.811555e-06
82	0x36f9281b	7.425447e-06
83	0xb6d45688	-6.328166e-06
84	0xb7011af1	-7.695272e-06
85	0xb6199bb3	-2.2889405e-06
86	0x36099b40	2.0504958e-06
87	0x36976438	4.5118177e-06
88	0x37989b56	1.8192146e-05
89	0x37564947	1.2772455e-05
90	0x37ac4266	2.0534917e-05
91	0xb7cd9f06	-2.4511955e-05
92	0x36f731e7	7.366983e-06
93	0xb78df066	-1.6920454e-05
94	0x3682ac47	3.8943576e-06
95	0x37537297	1.260326e-05
96	0xb6c31c67	-5.8147593e-06
97	0xb6dc881d	-6.5723566e-06
98	0x36381cc7	2.7434887e-06
99	0x379951fa	1.8277195e-05
100	0xb7211bfe	-9.602865e-06
101	0x3747702f	1.1887444e-05
102	0xb707ce49	-8.094657e-06
103	0xb720e878	-9.590869e-06
104	0x3522eabf	6.0691303e-07
105	0x36d59b90	6.3660045e-06
106	0x371d0dfa	9.361183e-06
107	0x36dc8da4	6.573e-06
108	0x3686ca15	4.0170366e-06
109	0x36992b8e	4.5648258e-06
110	0x33a3bab0	7.624237e-08
111	0xb738cd7f	-1.10151e-05
112	0x37c4f908	2.3480985e-05
113	0x375774bb	1.2842177e-05
114	0x365d7d03	3.3004333e-06
115	0xb82f566e	-4.1803745e-05
116	0x375c44c3	1.3129032e-05
117	0xb786c1d6	-1.6064307e-05
118	0x36d40b0d	6.319379e-06
119	0x37120206	8.702749e-06
120	0xb7823114	-1.5520061e-05
121	0xb7787131	-1.4808306e-05
122	0xb73c2de4	-1.1216358e-05
123	0x380a9e3a	3.3049124e-05
124	0xb6a753df	-4.9867517e-06
125	0x3612a89e	2.1853843e-06
126	0x3481d0d7	2.4180073e-07
127	0xb75a8821	-1.30255075e-05
128	0xb7989fb4	-1.819418e-05
129	0xb6def6bb	-6.644839e-06
130	0x375cf7dd	1.3170732e-05
131	0x3792d14b	1.7502016e-05
132	0xb5fc0ec4	-1.877976e-06
133	0xb61e21b4	-2.3563452e-06
134	0xb64bff59	-3.039799e-06
135	0x36917283	4.3346677e-06
136	0x37132d80	8.772477e-06
137	0x36e28e49	6.751889e-06
138	0x372c198e	1.0257949e-05
139	0xb6b05f2c	-5.256288e-06
140	0x37379ac9	1.0943689e-05
141	0xb5a1cddc	-1.2055348e-06
142	0xb6bb96a1	-5.59057e-06
143	0xb768439c	-1.3844019e-05
144	0xb7907486	-1.7220398e-05
145	0x3615a269	2.2297265e-06
146	0xb703aa89	-7.847914e-06
147	0x37c28d4f	2.3192404e-05
148	0xb5c0b956	-1.4359055e-06
149	0x37824d3d	1.5533175e-05
150	0x3628e5a7	2.5167626e-06
151	0xb63ef3cf	-2.8454122e-06
152	0xb78e8e71	-1.6994049e-05
153	0xb7f94969	-2.9717297e-05
154	0xb756b361	-1.2797159e-05
155	0x385b3b92	5.2269148e-05
156	0xb7a6aabb	-1.9868245e-05
157	0x3732508b	1.062838e-05
158	0x35573768	8.017437e-07
159	0xb69891ba	-4.546918e-06
160	0xb7a62a38	-1.9808402e-05
161	0xb741d0ed	-1.1552341e-05
162	0xb6efd342	-7.1473487e-06
163	0x38391d70	4.4134853e-05
164	0xb729ef3c	-1.0128886e-05
165	0x371b1179	9.242788e-06
166	0xb470aeea	-2.2415375e-07
167	0xb701eb97	-7.743852e-06
168	0x3857664e	5.1355273e-05
169	0x37e3aa5e	2.7139842e-05
170	0x3735e157	1.0840907e-05
171	0xb8b503cb	-8.631459e-05
172	0x37d43ef7	2.530169e-05
173	0xb8081815	-3.2447355e-05
174	0x338aa2d3	6.455743e-08
175	0x37aad075	2.036265e-05
176	0x3844bfe3	4.690875e-05
177	0x37abe8bf	2.049317e-05
178	0x373ff68b	1.144189e-05
179	0xb8a1cf10	-7.715647e-05
180	0x3799bd66	1.8327217e-05
181	0xb7fda70c	-3.0237738e-05
182	0xb689f8c7	-4.1118797e-06
183	0x37a4ee74	1.9661362e-05
184	0x37586c17	1.289977e-05
185	0x37971791	1.8011577e-05
186	0x36e054ae	6.6855782e-06
187	0xb8071a3d	-3.2210944e-05
188	0x36f45825	7.282028e-06
189	0xb746707a	-1.1827908e-05
190	0x36c00b96	5.7233947e-06
191	0x36e88034	6.9290636e-06
192	0x387b60c7	5.9933194e-05
193	0x3823db4b	3.906646e-05
194	0x37c14bfb	2.3042774e-05
195	0xb8daa87e	-0.00010426434
196	0x382587d7	3.9465576e-05
197	0xb8389d91	-4.4015764e-05
198	0xb62e7417	-2.5995594e-06
199	0x37b07a24	2.1037711e-05
200	0xb7c6fbfd	-2.372078e-05
201	0xb724a020	-9.812444e-06
202	0xb683cc7b	-3.927909e-06
203	0x385008bd	4.9599203e-05
204	0xb7c506b4	-2.3487351e-05
205	0x37761e92	1.466986e-05
206	0xb704d5e6	-7.917615e-06
207	0xb6f5fbb4	-7.330871e-06
208	0xb79a2b5d	-1.8378423e-05
209	0xb78a294d	-1.6470114e-05
210	0xb74e9331	-1.23128275e-05
211	0x381956cc	3.655888e-05
212	0xb70350f2	-7.827055e-06
213	0x371ac13e	9.224108e-06
214	0xb3a9eeff	-7.913149e-08
215	0xb7829146	-1.5564856e-05
216	0x371d5688	9.378076e-06
217	0x35c56d9d	1.4709545e-06
218	0xb6238fac	-2.437252e-06
219	0xb81ae48c	-3.6929312e-05
220	0x36d5e13c	6.3741154e-06
221	0xb6fd787b	-7.5540133e-06
222	0xb625ea3d	-2.472326e-06
223	0x372d278e	1.0320813e-05
224	0xb87a2169	-5.963576e-05
225	0xb83c8b39	-4.4952354e-05
226	0xb77b6485	-1.498417e-05
227	0x38d075b1	9.9401346e-05
228	0xb84ed146	-4.930913e-05
229	0x3833c721	4.286238e-05
230	0x362f1ef5	2.6095051e-06
231	0xb7cd4725	-2.4471034e-05
232	0xb87bf374	-6.0069797e-05
233	0xb82b90fc	-4.0904604e-05
234	0xb7e83991	-2.7683362e-05
235	0x38e6604a	0.0001098519
236	0xb8400790	-4.578341e-05
237	0x382df9b7	4.147898e-05
238	0x36aec98e	5.209068e-06
239	0xb7ec25dc	-2.8151022e-05
240	0xb81a92da	-3.6853227e-05
241	0xb79e3ed9	-1.8864333e-05
242	0xb74f9d2b	-1.2374755e-05
243	0x388299e1	6.227545e-05
244	0xb7d03366	-2.4819466e-05
245	0x37bd9018	2.2597655e-05
246	0x376c00fd	1.4066926e-05
247	0xb66c668f	-3.5226437e-06
248	0x37c91f16	2.3975543e-05
249	0x37818842	1.5441448e-05
250	0x35e121f1	1.6773685e-06
251	0xb82ebfd0	-4.1663472e-05
252	0x376275a1	1.3498037e-05
253	0x35e54f4e	1.708491e-06
254	0xb6d4c883	-6.341435e-06
255	0x36a7a1b6	4.9958135e-06

blocks.0.attention.w_v.lora_A f4 [8, 256]
0	0x3d016d0e	0.031598143
1	0x3d575cc0	0.052578688
2	0x3b9d2922	0.004796163
3	0xbb2b97e2	-0.0026183059
4	0xbd0c708b	-0.034287017
5	0xbd02ee4a	-0.03196553
6	0x3d27b80d	0.04094701
7	0xbbfdf6e4	-0.007750379
8	0xbc2c2a48	-0.0105081275
9	0x3c9f621b	0.01945596
10	0xbd1b94ae	-0.03798359
11	0x3ae73f69	0.0017642799
12	0x3d5f3ac0	0.054499388
13	0x3d6d5322	0.05794061
14	0xbd446bd1	-0.047954384
15	0x3c44f591	0.012021438
16	0xbc693cdc	-0.014235701
17	0xbd65b5c2	-0.05608154
18	0xbd150265	-0.036379237
19	0x3d3164ec	0.043309137
20	0x3d0e4684	0.034735218
21	0xbc988651	-0.018618735
22	0xbd4815e9	-0.04884902
23	0xbcd0925d	-0.025460416
24	0xbd460e1b	-0.048353296
25	0xbd2c96bd	-0.042135943
26	0xbc56c483	-0.0131083755
27	0x3b26702e	0.0025396454
28	0x3c851a0a	0.016247768
29	0xbc548898	-0.01297202
30	0xbd68684c	-0.05674009
31	0x3bbe5e7f	0.0058096047
32	0x3d16554b	0.036702435
33	0xbc9dff7f	-0.01928687
34	0x3c9f94d4	0.019480146
35	0xbd7dfbcc	-0.06200771
36	0x3d65f8cf	0.056145485
37	0xbd7bea02	-0.061502464
38	0x3cf8d1d9	0.0303735
39	0xbd5b446a	-0.05353204
40	0xbd3eda0f	-0.046594676
41	0xbd434a84	-0.047678486
42	0x3cb19c53	0.021680987
43	0x3d60c0b5	0.05487128
44	0x3d58517a	0.052812077
45	0x3cf7f1d4	0.03026668
46	0xbd72a6f1	-0.05924124
47	0xbcddc25a	-0.027070213
48	0x3cae72d4	0.021294989
49	0x3d4c498f	0.04987484
50	0xbc385c48	-0.01125247
51	0xbc894c17	-0.016759915
52	0xbd739f35	-0.059478004
53	0x3d43167e	0.047628872
54	0xbd045262	-0.03230513
55	0xbca76e2a	-0.020438273
56	0x3cf655ba	0.030070174
57	0xbd61cc81	-0.05512667
58	0xbcd572f6	-0.026055794
59	0xbd5104ac	-0.051029846
60	0x3d22ce16	0.03974732
61	0xbd61b45a	-0.055103637
62	0xbd27ddf2	-0.040983148
63	0x3d69c72f	0.057074722
64	0x3d3b4eab	0.04572932
65	0xba24addc	-0.00062820106
66	0x3d2ada70	0.041712224
67	0xbd684866	-0.05670967
68	0xbcb3947b	-0.021921387
69	0xbd0f70bc	-0.03501962
70	0xbd5e0125	-0.05420031
71	0xbcdda51a	-0.027056266
72	0xbd209bb9	-0.03921101
73	0xbd512c2d	-0.05106752
74	0x3c7b7cc0	0.015349567
75	0xbc7fcb53	-0.015612441
76	0x3d6493c5	0.055804987
77	0xbb624e79	-0.0034531637
78	0xbd459db2	-0.048246093
79	0x3d55a605	0.05216028
80	0xbd3a8986	-0.04554131
81	0xbcc77851	-0.024349364
82	0x3caaf96f	0.020870892
83	0xbd70b634	-0.058767512
84	0x3d500286	0.050783657
85	0x3c67e229	0.014153042
86	0xbca0db05	-0.019635687
87	0xbbebdbcd	-0.007197833
88	0x3d6580ee	0.05603116
89	0xbc2f5f92	-0.010703938
90	0x3b7ac05a	0.0038261623
91	0x3d562a30	0.052286327
92	0xbba4a241	-0.005024225
93	0xbb083b28	-0.0020787213
94	0x3ce4e9b4	0.02794347
95	0xbd7f7677	-0.062368836
96	0xbd0607db	-0.032722335
97	0x3d61adde	0.055097453
98	0x3c9e90ab	0.019356092
99	0x3d048fb4	0.03236361
100	0x3d22f3c8	0.03978327
101	0x3d2452bb	0.04011796
102	0x3cf0219b	0.0293129
103	0xbbc5f9bf	-0.006041735
104	0x3d61d345	0.055133123
105	0xbab1973e	-0.0013549102
106	0xbcc66582	-0.024218325
107	0xbd75e535	-0.060033042
108	0xbd053819	-0.032524202
109	0x3d2b5461	0.041828517
110	0xbd02de08	-0.031950027
111	0xbd0657b5	-0.032798488
112	0xbd17a4da	-0.03702245
113	0x3af11aab	0.0018394788
114	0xbcee9138	-0.02912198
115	0xbcb87afe	-0.022519585
116	0xbc378073	-0.011200058
117	0xbcd24164	-0.025665946
118	0xbc6c509b	-0.014423515
119	0xbcd17184	-0.025566824
120	0x3c5754f8	0.013142817
121	0xbd00848c	-0.031376407
122	0xbd4f3852	-0.05059082
123	0xbd0e6364	-0.034762755
124	0x3d60f224	0.054918423
125	0xbc474b30	-0.012163922
126	0x3d309487	0.043110397
127	0x3c72c2e5	0.014816974
128	0xbd761bc7	-0.060085084
129	0xbc3fd49e	-0.011708407
130	0xbd24010b	-0.040040057
131	0xbc3dcdbb	-0.0115846945
132	0xbd1bdf21	-0.03805459
133	0x3d34edc5	0.044172067
134	0x3d75627b	0.05990837
135	0x3c0b067f	0.0084854355
136	0x3cd5c853	0.026096499
137	0xbc8335cd	-0.016016865
138	0x3a048806	0.00050556695
139	0x3d00054d	0.031255055
140	0x3d402982	0.046914585
141	0x3d6bbf3a	0.057555415
142	0x3d6f02a8	0.058352143
143	0xbcb587e5	-0.022159526
144	0x3d66562b	0.05623452
145	0x3d41573a	0.047202326
146	0x3d340193	0.043946814
147	0x3d3f4efa	0.046706177
148	0x3d032441	0.032016996
149	0xbd0d2280	-0.03445673
150	0x3d44c6b7	0.04804107
151	0xbcdb012f	-0.026733963
152	0xbcd66ea5	-0.026175806
153	0xbc84631f	-0.016160546
154	0xbd4a348d	-0.049366523
155	0x3cd2b5d8	0.025721475
156	0xbd2c4d6f	-0.042066034
157	0xbd1d9f24	-0.038481846
158	0xbd5ff9ff	-0.054681774
159	0xbd008b58	-0.03138289
160	0x3cedd74d	0.029033327
161	0xbd2b4a4b	-0.0418189
162	0xbd5849d9	-0.0528048
163	0xbd791fa9	-0.06082121
164	0xbd229959	-0.039697025
165	0x3d421272	0.047380872
166	0xbd3eec11	-0.04661185
167	0x3d1e291a	0.038613416
168	0x3d7d06d1	0.06177408
169	0xbcff2d86	-0.031149637
170	0x3d6247c3	0.05524422
171	0x3c92a330	0.01790008
172	0x3d4b50e5	0.049637694
173	0xbc9c8933	-0.01910839
174	0x3bf9801b	0.0076141483
175	0x3d0b8730	0.03406447
176	0xbb9f11c2	-0.004854412
177	0x3caef54d	0.021357203
178	0xbd66e93f	-0.056374785
179	0xbd6cf7ca	-0.057853498
180	0x3cf5e5ec	0.030016862
181	0x3d11f99a	0.03563843
182	0x3cff0241	0.031129004
183	0xbd135526	-0.035969876
184	0xbd0729a4	-0.032998696
185	0x3cf18f3d	0.029487247
186	0xbb37f3e3	-0.0028068952
187	0xba28bb18	-0.00064365705
188	0xbd344245	-0.044008512
189	0xbd13be41	-0.036070112
190	0x3c8a2b25	0.016866276
191	0x3ca67b0a	0.020322341
192	0xbd1974e0	-0.037464976
193	0x3c272aeb	0.010203104
194	0xbc4559e6	-0.012045359
195	0xbd68b333	-0.056811523
196	0xbc85ca09	-0.01633169
197	0xbc28f57a	-0.010312432
198	0x3cd052cb	0.025430104
199	0xbcd114ad	-0.025522554
200	0xbb9c1c60	-0.0047641248
201	0xbd30dc7a	-0.043179013
202	0x3c7b2a56	0.015329918
203	0x3d12a6ee	0.035803728
204	0xbc9a41fd	-0.018830294
205	0xbc16abc4	-0.009196226
206	0xbd12f795	-0.035880644
207	0xbd7c4480	-0.061588764
208	0xbd59ab76	-0.053142034
209	0x3d0f04d2	0.034916706
210	0x3c46d8b6	0.012136629
211	0x3d5ff07c	0.054672703
212	0x3d3fa0af	0.0467841
213	0xbc48e4d4	-0.012261588
214	0xbcafce40	-0.021460652
215	0xbcaf85c2	-0.021426085
216	0xbd68b3ce	-0.0568121
217	0x3c499938	0.012304597
218	0x3d106c40	0.035259485
219	0xbd43ee87	-0.0478349
220	0x3d38d3ee	0.045123987
221	0xbd2b07e6	-0.04175558
222	0xbc9998ef	-0.018749682
223	0x3c8373f1	0.016046496
224	0xbcf4d2d5	-0.029885689
225	0x3d2abb97	0.041682806
226	0xbcf49f35	-0.029861072
227	0xbd396fdf	-0.045272704
228	0xbd45570a	-0.04817871
229	0x3d2b8f89	0.041884933
230	0x3cd45b92	0.02592257
231	0xbd719639	-0.058981154
232	0x3c791249	0.015202113
233	0x3c885cd6	0.01664583
234	0x3d1f8193	0.03894193
235	0x3ca5a609	0.020220773
236	0x3bc2d16c	0.005945375
237	0x3d798338	0.060916156
238	0x3d7bedc6	0.061506055
239	0x3d20ec27	0.039287712
240	0xbd6fe492	-0.05856759
241	0xbcd8478b	-0.026401302
242	0xbc6776be	-0.014127431
243	0xbd594ada	-0.0530499
244	0xbc3d347d	-0.011548159
245	0xbab8c9ad	-0.001409819
246	0xbbc6037f	-0.0060428972
247	0x3d657cc0	0.056027174
248	0x3d1ece3c	0.0387709
249	0x3cef420c	0.029206298
250	0xbc97aecd	-0.018515969
251	0x3d0d3bc8	0.03448084
252	0x3d4cc67b	0.049993973
253	0xbd03135b	-0.03200088
254	0xbd5ec7ec	-0.05438988
255	0xbd6c9f28	-0.05776897

blocks.0.attention.w_v.lora_B f4 [256, 8]
0	0x3880777b	6.1257706e-05
1	0xb81b945f	-3.709306e-05
2	0x38cefe51	9.8702156e-05
3	0xb7f74c4a	-2.948022e-05
4	0xb871d15d	-5.7653862e-05
5	0x390505d3	0.00012686038
6	0xb88ade37	-6.6217435e-05
7	0x386b84b4	5.6151956e-05
8	0xb5ea28a7	-1.744619e-06
9	0x3650e96d	3.1130287e-06
10	0x348a2258	2.5729491e-07
11	0xb7ac0095	-2.0504269e-05
12	0x368c1b3e	4.1754965e-06
13	0x3313399f	3.427851e-08
14	0x36b0bf51	5.267481e-06
15	0xb4fbbd8b	-4.6890304e-07
16	0x3914a03d	0.00014174073
17	0xb85f0eaa	-5.3181e-05
18	0x38d1e747	0.000100089754
19	0xb7a61a04	-1.9800857e-05
20	0xb8c47923	-9.368572e-05
21	0x38df8566	0.00010658316
22	0xb7c44d48	-2.3401008e-05
23	0x38a1a94e	7.708614e-05
24	0xb80f183c	-3.4116427e-05
25	0xb854d8d5	-5.074668e-05
26	0xb686bbfd	-4.015396e-06
27	0x37b45b8f	2.1500307e-05
28	0x34555769	1.986897e-07
29	0x36c9b53c	6.0113653e-06
30	0x36de32c1	6.622024e-06
31	0x37ef3884	2.8517337e-05
32	0xb864be58	-5.4536707e-05
33	0x37af249f	2.0878679e-05
34	0xb8a57dd7	-7.8912526e-05
35	0x3875f3ac	5.863949e-05
36	0xb63e0f5b	-2.8321144e-06
37	0xb8970fb5	-7.203167e-05
38	0x37ad3fdc	2.0652944e-05
39	0xb862e8d0	-5.4099422e-05
40	0xb94a1119	-0.0001927059
41	0x393c97cb	0.00017985624
42	0xb9680c4d	-0.00022129827
43	0x38ab6c67	8.174107e-05
44	0x395d5b7e	0.00021110286
45	0xb96de2eb	-0.00022686615
46	0x3852c4ab	5.0251063e-05
47	0xb953c2f9	-0.00020195161
48	0x37f3b0a3	2.905011e-05
49	0x373154bb	1.056975e-05
50	0x37b6d6f5	2.1796188e-05
51	0xb7e59281	-2.7367149e-05
52	0xb7163459	-8.952885e-06
53	0xb72b6dca	-1.02179565e-05
54	0x36e4267b	6.799409e-06
55	0x378b5b95	1.6612737e-05
56	0xb74466eb	-1.1706473e-05
57	0x378f8cb4	1.7112448e-05
58	0xb8694e0f	-5.5624227e-05
59	0x37ab48c0	2.0418665e-05
60	0xb7aea52d	-2.0819332e-05
61	0xb84f0180	-4.9354043e-05
62	0x382c0e8a	4.1021536e-05
63	0xb54ec809	-7.703207e-07
64	0xb8e8deaf	-0.000111041
65	0x38ac806d	8.22552e-05
66	0xb8f53a43	-0.000116933625
67	0x37f94047	2.9713045e-05
68	0x38ce31e1	9.832136e-05
69	0xb91c72f2	-0.0001492014
70	0x37833972	1.5643167e-05
71	0xb8c94f47	-9.5991934e-05
72	0x392d34a8	0.00016518182
73	0xb8fb6eec	-0.000119892735
74	0x39268e8e	0.000158841
75	0xb8a2414f	-7.736927e-05
76	0xb903cc8e	-0.00012569336
77	0x393d1cb6	0.0001803514
78	0xb791d7a0	-1.7385755e-05
79	0x391b5ac7	0.00014815769
80	0xb8ae86f1	-8.322101e-05
81	0x3887fb80	6.484147e-05
82	0xb8bf16bc	-9.111824e-05
83	0xb76dc1e0	-1.4171441e-05
84	0x38cccdc6	9.765806e-05
85	0xb8d82758	-0.00010307011
86	0xb71b1497	-9.243514e-06
87	0xb8a0a6f3	-7.660491e-05
88	0xb8ef6249	-0.00011414715
89	0x3753cc66	1.262417e-05
90	0xb89f0431	-7.5824915e-05
91	0x3841b8c8	4.6186877e-05
92	0x3802530f	3.107177e-05
93	0xb85b5835	-5.2295818e-05
94	0xb78568a2	-1.5903559e-05
95	0xb861942c	-5.3782176e-05
96	0xb91725be	-0.00014414542
97	0x38e5ccf3	0.00010957746
98	0xb938b503	-0.0001761504
99	0x381bde3f	3.7161863e-05
100	0x39211b6e	0.00015364375
101	0xb937bf5b	-0.00017523525
102	0xb758f5b2	-1.2931809e-05
103	0xb9000d57	-0.00012212001
104	0x391cd380	0.00014956109
105	0xb9074a4c	-0.00012902281
106	0x39501bcc	0.00019846781
107	0xb82b0c7e	-4.078121e-05
108	0xb92a7a4f	-0.00016258027
109	0x3946694e	0.0001892198
110	0xb798fe39	-1.8238194e-05
111	0x391e705f	0.00015109916
112	0xb946b787	-0.00018951121
113	0x3917ebad	0.00014488278
114	0xb956c055	-0.0002048028
115	0x386a7573	5.589933e-05
116	0x3940b8a7	0.00018379335
117	0xb964a7ae	-0.0002180624
118	0x377eaf74	1.5180431e-05
119	0xb93468ec	-0.00017205224
120	0x389f3ee5	7.593426e-05
121	0xb8b3a718	-8.566509e-05
122	0x387d8175	6.0440467e-05
123	0xb7af2913	-2.0880752e-05
124	0xb86446cb	-5.4425367e-05
125	0x38bcc5a6	9.0013535e-05
126	0x38055e48	3.1797477e-05
127	0x38bdee54	9.056614e-05
128	0xb8f1e33d	-0.00011534102
129	0x38802854	6.111027e-05
130	0xb9023abd	-0.00012419648
131	0x37a812a0	2.0035834e-05
132	0x38cca129	9.7574964e-05
133	0xb91f0e5b	-0.0001516877
134	0x384b7a91	4.851312e-05
135	0xb8a6ec62	-7.9595266e-05
136	0x38125273	3.48859e-05
137	0x370f37c2	8.536446e-06
138	0x380bce70	3.3332442e-05
139	0xb7ebeb72	-2.812382e-05
140	0x37a32632	1.94489e-05
141	0x3703e5a6	7.861678e-06
142	0xb7ac9c6e	-2.0576841e-05
143	0x37b1b2af	2.118325e-05
144	0x38c2fcb5	9.297711e-05
145	0xb89b32a4	-7.4004085e-05
146	0x38e80956	0.00011064361
147	0xb83fbdfe	-4.5714893e-05
148	0xb8dbca4e	-0.00010480416
149	0x38e7e78f	0.000110580695
150	0x37abf1dd	2.0497415e-05
151	0x38e44f7c	0.00010886692
152	0x386e7628	5.6853663e-05
153	0xb7138f1f	-8.795206e-06
154	0x38718a93	5.7587935e-05
155	0xb8747239	-5.828051e-05
156	0x376fd04b	1.4294007e-05
157	0x3795b82f	1.7847951e-05
158	0xb7c17e13	-2.30661e-05
159	0x383208ca	4.2446693e-05
160	0x390a1075	0.00013166836
161	0xb7f33d82	-2.89965e-05
162	0x38e577bb	0.000109418725
163	0xb817f615	-3.6230387e-05
164	0xb8a43eed	-7.83185e-05
165	0x38f3017b	0.00011587419
166	0xb82f022a	-4.1725267e-05
167	0x386be882	5.6244906e-05
168	0xb93cef68	-0.00018018263
169	0x38ebe0cf	0.00011247547
170	0xb943ef53	-0.00018685804
171	0x38061abd	3.197299e-05
172	0x3924745b	0.00015683605
173	0xb94cf455	-0.00019545977
174	0xb6c7d7d2	-5.955787e-06
175	0xb9219de7	-0.0001541298
176	0x3939dc1e	0.00017724975
177	0xb9267a73	-0.0001587661
178	0x395bef79	0.00020974678
179	0xb8656ba9	-5.469812e-05
180	0xb9406215	-0.00018347085
181	0x3966dc2a	0.00022016527
182	0xb878a6e1	-5.9283226e-05
183	0x3942fcc3	0.00018595443
184	0xb690663a	-4.303435e-06
185	0x3895d1c7	7.143948e-05
186	0xb869a8e4	-5.570882e-05
187	0x35a316eb	1.2151116e-06
188	0x37b40558	2.146016e-05
189	0xb8a217ad	-7.729172e-05
190	0xb7140a02	-8.823818e-06
191	0xb82933eb	-4.0341092e-05
192	0xb8830192	-6.246859e-05
193	0x389423e9	7.063879e-05
194	0xb8e5e606	-0.00010962416
195	0x38266f17	3.9680945e-05
196	0x38a025af	7.636414e-05
197	0xb8efba55	-0.00011431115
198	0x370a0356	8.226218e-06
199	0xb8bc9c04	-8.993599e-05
200	0xb8e1f1e9	-0.00010773895
201	0x38e56871	0.00010939025
202	0xb92e15b1	-0.00016602014
203	0x381018a3	3.435522e-05
204	0x38ff8849	0.000121847326
205	0xb948aeb5	-0.0001913857
206	0x38c32a21	9.306172e-05
207	0xb8f22eb9	-0.00011548162
208	0xb938e1fa	-0.0001763179
209	0x39326838	0.00017014227
210	0xb95dc374	-0.00021149014
211	0x38464696	4.7272617e-05
212	0x3940453a	0.00018336336
213	0xb965f593	-0.00021930625
214	0x389587e3	7.1301845e-05
215	0xb93efef0	-0.00018214784
216	0xb6bf535c	-5.701948e-06
217	0x377bc3d6	1.5006362e-05
218	0x383ec404	4.5482084e-05
219	0x3652d2db	3.1415173e-06
220	0x36cfbda8	6.1911596e-06
221	0x38155ecd	3.561266e-05
222	0xb88c3619	-6.685797e-05
223	0xb7663dff	-1.3723503e-05
224	0x38b5ec80	8.674804e-05
225	0xb7295eb5	-1.0095236e-05
226	0x3874ec2c	5.8394085e-05
227	0xb8532e6e	-5.034956e-05
228	0xb6953328	-4.4465014e-06
229	0x38323fec	4.249804e-05
230	0x37e21903	2.6952946e-05
231	0x38744437	5.8237663e-05
232	0xb893ab14	-7.041372e-05
233	0xb5102501	-5.369803e-07
234	0xb8865414	-6.405279e-05
235	0x37bcefa0	2.252293e-05
236	0x380b265a	3.31759e-05
237	0xb87b03d2	-5.984662e-05
238	0x375277de	1.2544884e-05
239	0xb780aeeb	-1.5340242e-05
240	0x38cfc255	9.906726e-05
241	0xb8f10b89	-0.00011493924
242	0x38e89035	0.00011089483
243	0xb801625b	-3.0847597e-05
244	0xb898b079	-7.2807954e-05
245	0x391856da	0.00014528204
246	0x37907faf	1.7225595e-05
247	0x38e79efa	0.0001104455
248	0xb948fbc2	-0.00019167273
249	0x39045571	0.0001262033
250	0xb949da03	-0.0001925007
251	0x388234a6	6.2086896e-05
252	0x392e62b8	0.00016630709
253	0xb95ac90b	-0.00020864994
254	0x3861ab34	5.3803626e-05
255	0xb937a03d	-0.00017511933

blocks.1.attention.w_q.lora_A f4 [8, 256]
0	0xbd164a52	-0.03669197
1	0x3caddb75	0.02122281
2	0xbd64f14e	-0.05589419
3	0x3d6cf3eb	0.057849806
4	0x3cf319bc	0.029675357
5	0xbd492de1	-0.04911602
6	0x3d7bc28e	0.06146484
7	0x3c184d54	0.00929578
8	0x3c2a4398	0.010392092
9	0xbd19fbe3	-0.037593734
10	0x3d5110fa	0.05104158
11	0x3cbe3964	0.023220725
12	0xbd0e7369	-0.034778032
13	0xbd3bd852	-0.045860596
14	0xbcda5482	-0.026651625
15	0x3cce5241	0.025185706
16	0xbd0a1a30	-0.03371638
17	0xbc89e2ac	-0.016831718
18	0x3d069038	0.03285238
19	0xbd5e0c57	-0.054210987
20	0x3d542462	0.05179251
21	0xbd30e6df	-0.043188926
22	0x3c4bbde8	0.012435414
23	0xbc0e0cb7	-0.008670024
24	0x3d03ef04	0.032210365
25	0xbcb5b2f7	-0.022180064
26	0x3c97a49f	0.018511115
27	0xbbfd41ce	-0.007728792
28	0xbd0f9715	-0.035056192
29	0x3d5dbaa6	0.05413308
30	0xbcfefd6f	-0.031126706
31	0xbd190dec	-0.037366793
32	0xbd74d9dd	-0.059778083
33	0x3bd8bf6c	0.006614616
34	0xbd2f897f	-0.042855736
35	0x3c968ef5	0.018378714
36	0x3c10f89d	0.0088483365
37	0x3d3d6fcd	0.0462492
38	0xbd445b3f	-0.04793858
39	0x3caef03e	0.02135479
40	0x3cf6381d	0.030056054
41	0x3d353d04	0.044247642
42	0xbd0a39c2	-0.03374649
43	0xbd4c066d	-0.049810816
44	0xbd7a5297	-0.06111392
45	0xbc167524	-0.009183202
46	0x3d703ccd	0.058651734
47	0x3c4f594b	0.012655566
48	0xbca201a6	-0.019776177
49	0xbca3f8aa	-0.020016033
50	0xba56267a	-0.00081691856
51	0x3d7d18c9	0.061791215
52	0x3c01daab	0.00792567
53	0x3be05d5d	0.0068470673
54	0x3ce08495	0.02740697
55	0x3ce3e628	0.027819708
56	0xbb8ab04a	-0.004232441
57	0xbc6e20c8	-0.014534183
58	0x3d58e7ef	0.052955564
59	0xbd73dfa7	-0.059539463
60	0xbc1a2cf6	-0.009410134
61	0x3d1300f2	0.035889573
62	0xbd258be5	-0.040416617
63	0x3d3a2ed3	0.04545481
64	0xbd7d09ea	-0.061777033
65	0xbc25cd8c	-0.010119807
66	0xbd0611f6	-0.032731973
67	0xbcc05a30	-0.023480505
68	0x3d24f1af	0.04026955
69	0x3c756110	0.014976755
70	0x3c669c62	0.0140753705
71	0x3d62b704	0.05535032
72	0x3cdc94ce	0.026926424
73	0xbcb50e7c	-0.022101633
74	0x3cac9850	0.021068722
75	0x3d2412fb	0.040057164
76	0xbd135778	-0.03597209
77	0x3d194231	0.03741664
78	0x3ca9801a	0.020690966
79	0xbc06b2fc	-0.008221384
80	0xbcd2de36	-0.025740724
81	0xbc718af8	-0.014742605
82	0xbcc7ca82	-0.024388555
83	0x3d2d6860	0.042335868
84	0xbc5749ef	-0.013140186
85	0xb866d442	-5.5033954e-05
86	0xbd3e6d3d	-0.046490896
87	0x3d7aa83f	0.06119561
88	0x3cbd4e17	0.023108525
89	0x3d0d2614	0.034460142
90	0x3c89e744	0.016833909
91	0xbd67d54b	-0.056599896
92	0xbd05aa97	-0.03263339
93	0x3c067da1	0.008208663
94	0x3d18edc8	0.03733614
95	0x3bdf5bd2	0.0068163658
96	0xbd12f0b5	-0.035874087
97	0xbd3a8cfe	-0.045544617
98	0xbd739fe7	-0.059478667
99	0x3d022c6f	0.031780656
100	0x3cc3d3d1	0.023904713
101	0x3cc31b01	0.023816587
102	0xbb43726a	-0.0029822835
103	0xbc87c5b9	-0.016573774
104	0x3b82cd64	0.0039917696
105	0xbd378d96	-0.04481276
106	0x3c84bec0	0.016204238
107	0x3ccc12c7	0.024911297
108	0x3c4f8c9c	0.012667801
109	0xbb07046b	-0.0020601999
110	0x3d435e54	0.04769738
111	0x3d646a82	0.055765636
112	0xbac51022	-0.0015034715
113	0xbd7a239e	-0.061069123
114	0x3d295c2a	0.04134766
115	0x3d50ff49	0.05102471
116	0xbd2ec96a	-0.042672552
117	0xbd1d353d	-0.03838085
118	0x3c8885f2	0.016665433
119	0x3bcf06a4	0.0063179303
120	0x3bdf9277	0.00682288
121	0xbc0e679b	-0.008691694
122	0xbc962a9b	-0.018330863
123	0xbc700869	-0.014650443
124	0xbd3114cc	-0.043232724
125	0x3d6f2262	0.0583824
126	0xbd5fc5c3	-0.05463196
127	0x3d7fbf5f	0.062438365
128	0x3d6a2a14	0.057169035
129	0xbcceca3b	-0.025242915
130	0xbc17b304	-0.009258989
131	0x3d733577	0.05937716
132	0x3d2910b5	0.0412757
133	0xbd74f3be	-0.059802763
134	0x3d5a4d34	0.053296283
135	0xbc0ba292	-0.0085226465
136	0x3d572208	0.05252269
137	0x3ced7c6c	0.028989993
138	0xbce8f826	-0.028438639
139	0x3d3ead25	0.046551842
140	0x3d0bf32b	0.03416745
141	0x3cfb9353	0.030709898
142	0xbd5231b7	-0.051316943
143	0xbba1eaea	-0.004941334
144	0xbc9c737c	-0.019098036
145	0x3d44b480	0.0480237
146	0x3d596dff	0.053083416
147	0xbd55281f	-0.052040216
148	0xbaefc5e5	-0.001829323
149	0xbd069b5e	-0.032863013
150	0x3d08b840	0.03337884
151	0xbc26dfbb	-0.010185177
152	0x3c66c54c	0.014085125
153	0x3d53043c	0.05151771
154	0x3c94fcaf	0.018186895
155	0x3ca107eb	0.019657096
156	0x3c844e45	0.016150603
157	0x3d4eb9ad	0.050470043
158	0xbd53881c	-0.051643476
159	0xbd134218	-0.035951704
160	0xbd6fa654	-0.058508232
161	0xbcf70ab4	-0.03015647
162	0xbd7a1158	-0.061051697
163	0xbd24a1e1	-0.040193442
164	0xbc7e2226	-0.015511071
165	0xbb8467a7	-0.0040406766
166	0xbca27b00	-0.019834042
167	0x3d034146	0.03204467
168	0xbb942260	-0.0045206994
169	0x3d2d64cd	0.04233246
170	0xbd40645b	-0.046970706
171	0x3d457c11	0.048214022
172	0xbd28cdf3	-0.041212033
173	0x3c267914	0.010160703
174	0x3d4ab2d4	0.04948695
175	0x3d77ff51	0.060546223
176	0x3d335a96	0.04378756
177	0xbca07640	-0.019587636
178	0xbd309101	-0.043107037
179	0x3c5f7624	0.013639007
180	0x3d5c91a2	0.053849824
181	0xbc9614b6	-0.018320423
182	0x3bce0c2b	0.0062880716
183	0xbd04d5e0	-0.03243053
184	0xba49bcf4	-0.0007695698
185	0xbd4fc51c	-0.050725088
186	0x3d1833a3	0.03715862
187	0xbd4115b5	-0.047139842
188	0x3d5adeb1	0.05343503
189	0x39836a04	0.00025065255
190	0xbd65d587	-0.05611184
191	0x3c93c65d	0.018038923
192	0xbd6ba669	-0.057531748
193	0x3d259196	0.040422045
194	0x3b8bee03	0.0042703166
195	0xbd19672d	-0.03745191
196	0xbd269f6f	-0.04067939
197	0x3cc53bc0	0.024076343
198	0x3cec8c68	0.028875545
199	0x3d5b8274	0.053591207
200	0x3d09ebed	0.033672262
201	0xbd5008bf	-0.05078959
202	0xbc83a59b	-0.016070178
203	0xbd4a0aca	-0.049326696
204	0xbc4f2c2c	-0.012644809
205	0x3ce3e1e6	0.027817678
206	0x3d7382a2	0.059450753
207	0xbd4e08e8	-0.050301462
208	0xbca1a55d	-0.019732172
209	0x3d40b1d1	0.04704458
210	0x3c1e07f7	0.009645454
211	0x3b462f48	0.0030240584
212	0xbcc43cd5	-0.023954788
213	0xbd2496ac	-0.040182754
214	0xbd5cbcfd	-0.05389117
215	0xbb54f6a1	-0.0032495635
216	0x396124ce	0.00021471383
217	0x3d1e4dee	0.03864854
218	0xbd02fffb	-0.031982403
219	0xbd65885b	-0.05603824
220	0x3c07608c	0.008262765
221	0xbce7f357	-0.028314276
222	0x3cec30c8	0.028831854
223	0x3ccb926c	0.024850093
224	0x3d801a52	0.0625502
225	0x3c0e0164	0.008667324
226	0x3cc1babd	0.023648614
227	0x3d5c8680	0.053839207
228	0x3d1d6aa9	0.038431797
229	0x3d15ec19	0.036602113
230	0x3d1f38a1	0.038872365
231	0x3d0107de	0.031501643
232	0x3cd953a7	0.026529146
233	0xbd54391b	-0.051812273
234	0xbc9a5bee	-0.018842664
235	0xbd1ffda0	-0.039060235
236	0xbcad6adc	-0.021169119
237	0xbc06fac4	-0.008238498
238	0xbc755497	-0.014973781
239	0x3d1048ba	0.035225607
240	0x3cc74110	0.024323016
241	0x3d75c24b	0.059999745
242	0xbc3fcb1a	-0.011706138
243	0xbd41ae6d	-0.047285486
244	0x3cf995f9	0.03046702
245	0xbd7c570e	-0.06160646
246	0x3d6ee8b4	0.05832739
247	0xbb4b7d69	-0.0031050092
248	0x3c2f78cf	0.010709955
249	0xbce2ae86	-0.02767111
250	0xbc0dfea4	-0.008666668
251	0xbd082d3a	-0.033246256
252	0xbcad23ea	-0.02113529
253	0x3d5b379c	0.05351983
254	0xbd0fe2a3	-0.035128247
255	0x3c2f2feb	0.010692577

blocks.1.attention.w_q.lora_B f4 [256, 8]
0	0x3874973e	5.831499e-05
1	0x38277e47	3.9933508e-05
2	0x379927ef	1.8257617e-05
3	0xb73502d4	-1.0789099e-05
4	0xb82eb9d2	-4.165789e-05
5	0xb81027e4	-3.4369426e-05
6	0xb7e91672	-2.7786216e-05
7	0x3735ac2b	1.0828527e-05
8	0x3933b39a	0.00017137677
9	0x39023937	0.0001241908
10	0x38bb7471	8.938544e-05
11	0xb88b7d9a	-6.6514316e-05
12	0xb90dc89a	-0.00013521538
13	0xb88be6a4	-6.670997e-05
14	0xb905c773	-0.00012758169
15	0x38ad5bc6	8.266377e-05
16	0xb8f2fd33	-0.00011586621
17	0xb8bd83f9	-9.036804e-05
18	0x374a0557	1.20413815e-05
19	0xb7b11857	-2.1111378e-05
20	0x38b2220f	8.494045e-05
21	0x38af6773	8.363919e-05
22	0x387048f7	5.7288413e-05
23	0xb7bcb6a7	-2.24964e-05
24	0x37fd232c	3.0176328e-05
25	0x37f9f7f7	2.979858e-05
26	0x37a34141	1.94615e-05
27	0x37bf3421	2.2793249e-05
28	0xb82babc5	-4.092955e-05
29	0xb8266769	-3.9673792e-05
30	0xb8265986	-3.966086e-05
31	0x3774c965	1.4590424e-05
32	0x3959b17a	0.00020760848
33	0x3942335a	0.00018520412
34	0x38a5f577	7.9135345e-05
35	0xb75d6c92	-1.3197905e-05
36	0xb93e83b9	-0.00018168883
37	0xb91af251	-0.00014776854
38	0xb91c2fa2	-0.00014895064
39	0x38de6137	0.000106038926
40	0xb946defa	-0.00018965817
41	0xb915a4af	-0.00014271097
42	0xb7ed5cdf	-2.8295848e-05
43	0x38d1232a	9.9724464e-05
44	0x390a034c	0.00013161934
45	0x389e4191	7.54624e-05
46	0x391eccd7	0.00015144363
47	0xb8c13758	-9.213266e-05
48	0xb7db75a1	-2.616161e-05
49	0xb7b67db1	-2.175462e-05
50	0x373d2161	1.12730495e-05
51	0xb85b3973	-5.2267173e-05
52	0x3775f6da	1.4660613e-05
53	0x381b1c29	3.6981106e-05
54	0xb798a7a5	-1.8197878e-05
55	0x370d0d27	8.407317e-06
56	0x38cec2ed	9.859153e-05
57	0x38259e20	3.948633e-05
58	0xb73d989a	-1.1300808e-05
59	0x38378622	4.375552e-05
60	0xb8903b8e	-6.877548e-05
61	0xb7924693	-1.743742e-05
62	0xb88472c7	-6.3156294e-05
63	0x37956f6c	1.7814069e-05
64	0xb924ac1f	-0.00015704379
65	0xb8da9b62	-0.00010423992
66	0xb863c019	-5.4299922e-05
67	0xb7a2f6ec	-1.9426887e-05
68	0x390ea928	0.00013605191
69	0x38347a0b	4.3029006e-05
70	0x38db5258	0.000104580715
71	0xb81ad5d7	-3.6915615e-05
72	0x39004ddb	0.00012236035
73	0x38e2a441	0.000108071144
74	0x38943b82	7.068274e-05
75	0x373784aa	1.0938538e-05
76	0xb8de0959	-0.00010587526
77	0xb83c78a8	-4.4935063e-05
78	0xb8b1b32c	-8.473391e-05
79	0x3893c449	7.046067e-05
80	0xb90c11ab	-0.00013358022
81	0xb8fded6f	-0.000121082056
82	0xb7ee9963	-2.8443237e-05
83	0x38bf96ae	9.135656e-05
84	0x38ea1d98	0.00011163502
85	0x36f61afe	7.3345136e-06
86	0x38d5a9ce	0.0001018826
87	0xb8804d72	-6.117941e-05
88	0xb8301912	-4.198502e-05
89	0xb77fccf6	-1.5246906e-05
90	0x380eafd6	3.40192e-05
91	0xb6e51a55	-6.8277973e-06
92	0x38570b1e	5.127035e-05
93	0xb84f0dc7	-4.9365477e-05
94	0x385c81f4	5.2573116e-05
95	0xb71ce2a9	-9.351098e-06
96	0x37839d67	1.5689713e-05
97	0x368611ea	3.9955967e-06
98	0x37b97978	2.2110282e-05
99	0xb89d0f82	-7.489232e-05
100	0x3753fd2a	1.2635524e-05
101	0xb833f978	-4.290926e-05
102	0xb7a61499	-1.9798334e-05
103	0xb7441b9b	-1.1688938e-05
104	0x38c461e8	9.364245e-05
105	0x38be3e70	9.071536e-05
106	0xb7847ead	-1.5794614e-05
107	0xb84a390c	-4.8213682e-05
108	0xb89ea6f1	-7.565122e-05
109	0x379ca733	1.8674507e-05
110	0xb8d5666f	-0.00010175711
111	0x37d6b318	2.5594185e-05
112	0xb943d3da	-0.0001867557
113	0xb91ffc86	-0.00015257494
114	0xb780425f	-1.5289696e-05
115	0x34d8b93e	4.0367917e-07
116	0x392c20e4	0.00016415451
117	0x38fd721b	0.00012085234
118	0x38fc32b6	0.00012025742
119	0xb8c66b2d	-9.461339e-05
120	0xb8dd330c	-0.000105476094
121	0xb8aa5850	-8.122681e-05
122	0xb89a7a62	-7.366088e-05
123	0x35becd38	1.421583e-06
124	0x38934378	7.022073e-05
125	0x38a613b0	7.919164e-05
126	0x388bb0de	6.6609806e-05
127	0xb6da7e63	-6.5116196e-06
128	0xb81caef8	-3.735625e-05
129	0xb88e26a3	-6.778284e-05
130	0x37c31710	2.325655e-05
131	0x379146e1	1.7318353e-05
132	0xb6209298	-2.3927187e-06
133	0x3852f8aa	5.0299488e-05
134	0x37edec5b	2.8362663e-05
135	0xb84695bd	-4.7346333e-05
136	0x3943630d	0.00018633548
137	0x39100331	0.00013734099
138	0x386d6cd2	5.660655e-05
139	0xb81ed3e0	-3.786746e-05
140	0xb937c824	-0.00017526798
141	0xb8a174d0	-7.698836e-05
142	0xb900095e	-0.00012210521
143	0x38c3e53d	9.3410235e-05
144	0x387a676a	5.9700957e-05
145	0x37bd3764	2.2556349e-05
146	0x380bbb7b	3.3314787e-05
147	0xb7ba730f	-2.2226506e-05
148	0xb867bc62	-5.5250137e-05
149	0x37f01f41	2.8624783e-05
150	0xb8d234dc	-0.00010023426
151	0x38389e72	4.4016582e-05
152	0x388a5bb6	6.597435e-05
153	0x38907734	6.8886584e-05
154	0x389c6cf6	7.458955e-05
155	0xb65257e2	-3.1343593e-06
156	0xb7510dcb	-1.2460582e-05
157	0x37611a3f	1.3417156e-05
158	0xb7e4ef9c	-2.7291295e-05
159	0xb7803a0b	-1.5285817e-05
160	0xb90dc9b3	-0.00013521947
161	0xb8bef71a	-9.105932e-05
162	0xb8df0779	-0.000106348605
163	0x3876c1d1	5.8831476e-05
164	0x38904646	6.8795445e-05
165	0x38b24d0d	8.502053e-05
166	0x38195d6e	3.6565056e-05
167	0xb7a0c725	-1.916622e-05
168	0xb9005383	-0.00012238142
169	0xb8e73050	-0.00011023937
170	0xb8001edd	-3.054632e-05
171	0xb6fb07af	-7.4812774e-06
172	0x38e76327	0.00011033407
173	0x368d52a7	4.2117495e-06
174	0x38540a2a	5.0554205e-05
175	0xb881bb14	-6.186045e-05
176	0x37b6df65	2.1800117e-05
177	0x3737fff2	1.0967242e-05
178	0x38ac2287	8.20803e-05
179	0x37800698	1.526186e-05
180	0xb549590c	-7.5007915e-07
181	0x36974eec	4.5093384e-06
182	0xb6c084b2	-5.7374937e-06
183	0x374a96de	1.2075265e-05
184	0xb891a790	-6.94535e-05
185	0xb8d83d55	-0.000103111066
186	0xb8c8aaad	-9.568534e-05
187	0xb84d9221	-4.9011902e-05
188	0x38c19ed1	9.232539e-05
189	0xb7e09ceb	-2.6775951e-05
190	0x3837c55f	4.3814416e-05
191	0xb8b7a572	-8.7569366e-05
192	0xb8f1a4d1	-0.00011522475
193	0xb86925ab	-5.558661e-05
194	0xb8269af2	-3.972179e-05
195	0x379d5a44	1.8757892e-05
196	0x38e945ec	0.0001112333
197	0x3854905d	5.0679188e-05
198	0x37c40d78	2.3371293e-05
199	0xb8616a9a	-5.374346e-05
200	0x3941a5fe	0.00018467751
201	0x39251d4c	0.0001574654
202	0x37e187d5	2.6885342e-05
203	0xb8a0ef50	-7.67397e-05
204	0xb92f3479	-0.00016708848
205	0xb8cb79b7	-9.7024655e-05
206	0xb91125fd	-0.0001384243
207	0x38b834bf	8.7836284e-05
208	0xb84e4f1e	-4.918791e-05
209	0xb7b8c10c	-2.2024404e-05
210	0xb7a6211f	-1.9804165e-05
211	0x37fda3d0	3.0236231e-05
212	0x37ed8efb	2.8319182e-05
213	0xb7455b2d	-1.17633435e-05
214	0x37ed4db0	2.8288778e-05
215	0xb6c91380	-5.992537e-06
216	0xb83aa8fd	-4.450324e-05
217	0xb84da7e2	-4.903216e-05
218	0x38102ed6	3.4375895e-05
219	0x38056cbb	3.1810934e-05
220	0x37bbc0ce	2.2381919e-05
221	0xb7890102	-1.6332142e-05
222	0x3837665a	4.3725922e-05
223	0xb8070978	-3.2195327e-05
224	0xb916bf73	-0.00014376435
225	0xb8e209cc	-0.000107783446
226	0x379aecf1	1.8468565e-05
227	0x38468f83	4.7340534e-05
228	0x38fd8269	0.00012088271
229	0x3792ab01	1.7484186e-05
230	0x38c85729	9.552978e-05
231	0xb896b4a7	-7.1862065e-05
232	0xb96d853e	-0.00022651718
233	0xb95207ad	-0.0002003002
234	0xb82cf97d	-4.124035e-05
235	0x38320605	4.2444113e-05
236	0x396046bc	0.00021388655
237	0x38fedd59	0.00012152893
238	0x393fd037	0.00018292746
239	0xb915229a	-0.00014222637
240	0x38223e00	3.868155e-05
241	0x379d085e	1.8719755e-05
242	0xb7c2575d	-2.3167284e-05
243	0x37aabe6b	2.035425e-05
244	0xb860a561	-5.3559783e-05
245	0xb825d483	-3.9536983e-05
246	0xb715b93c	-8.92422e-06
247	0xb671a72e	-3.600911e-06
248	0x395903ac	0.000206961
249	0x392b06dd	0.00016310388
250	0x388aec07	6.624316e-05
251	0xb905f5ae	-0.00012775391
252	0xb939f33a	-0.00017733584
253	0xb8af5c41	-8.361834e-05
254	0xb91b3d77	-0.0001480485
255	0x38a42328	7.826678e-05

blocks.1.attention.w_v.lora_A f4 [8, 256]
0	0xbd119144	-0.035538927
1	0xbba8c936	-0.0051509393
2	0xbd32e694	-0.043676928
3	0xbd454a95	-0.04816683
4	0xbc2c286b	-0.010507683
5	0xbd137116	-0.03599652
6	0x3d5215e7	0.05129042
7	0xbd3e2cf3	-0.046429586
8	0x3d7a784b	0.061149877
9	0xbd6709da	-0.05640588
10	0xbd1e60eb	-0.038666647
11	0x3d5baa03	0.053628933
12	0xbd202b39	-0.03910372
13	0xbd0ce84c	-0.034401223
14	0xbd16a7a7	-0.03678098
15	0xbd7acec2	-0.061232336
16	0xbc3fe0c3	-0.011711302
17	0xbd61f6c9	-0.055166993
18	0x3ce36135	0.027756313
19	0xbd6b3f15	-0.057433207
20	0xbd6df187	-0.058091667
21	0x3d70f3fc	0.05882643
22	0xbcb9663e	-0.02263176
23	0x3d47e505	0.048802394
24	0x3cf8a36a	0.03035136
25	0x3cd125b1	0.025530668
26	0x3d76275b	0.060096126
27	0x3d58cd18	0.052929968
28	0x3d546f2d	0.051863838
29	0x3add8e1f	0.0016903317
30	0xbbc76b8e	-0.0060858196
31	0xbcffb04d	-0.031211996
32	0xbc910f85	-0.017707596
33	0x3c45a2b3	0.012062716
34	0xbc0fed7d	-0.008784649
35	0x3b90d8aa	0.0044203596
36	0xbd08e969	-0.033425722
37	0xbc81ff3b	-0.015868774
38	0xbd618714	-0.05506046
39	0x3c3ae85c	0.011407938
40	0x3cfe76f3	0.031062579
41	0xbd1a0458	-0.0376018
42	0xbcc35827	-0.023845745
43	0xbaf19c46	-0.0018433414
44	0x3cf6438d	0.030061508
45	0xbc9038ba	-0.017605174
46	0x3d448cbe	0.047985785
47	0x3c8fcc8b	0.017553588
48	0x3c97302c	0.018455587
49	0x3c361adf	0.011114805
50	0x3a519875	0.0007995435
51	0x3d0a025b	0.033693653
52	0x3d0ad387	0.033893134
53	0x3b909c96	0.0044131977
54	0xbd690ce5	-0.056897063
55	0xbcb31a0e	-0.02186301
56	0x3d676d0f	0.05650049
57	0xbc8a7d72	-0.01690552
58	0xbd32a1b1	-0.043611232
59	0xbc45cc2a	-0.012072602
60	0xbd0c0294	-0.034182146
61	0x3d50cb28	0.050974995
62	0x3d257d67	0.040402796
63	0xbc1eca1c	-0.009691741
64	0x3d5e0d5c	0.05421196
65	0xbd22b57d	-0.039723862
66	0xbbe6849c	-0.0070348512
67	0x3ac1e21c	0.0014792117
68	0x3d02a0c8	0.031891614
69	0x3d33ca46	0.043894075
70	0x3d03fcac	0.03222339
71	0xbd6a25e8	-0.057165056
72	0x3c47c83a	0.012193734
73	0xbd26280e	-0.040565543
74	0x3d8062c4	0.06268838
75	0xbd7341e2	-0.059389003
76	0xbd7af4d7	-0.061268654
77	0xbbf25a6a	-0.007396032
78	0x3c5f336c	0.0136231
79	0x3c87f131	0.016594501
80	0x3ca64400	0.020296097
81	0xbd1d80be	-0.038452856
82	0xbc5e4ca3	-0.013568076
83	0xbd1235cc	-0.035695836
84	0x39386593	0.00017585447
85	0x3b1a7861	0.0023570287
86	0xbc60b784	-0.013715629
87	0x3d5eed6c	0.054425642
88	0xbcc0a06c	-0.023513995
89	0xbc961702	-0.018321518
90	0x3cd2feae	0.025756206
91	0xbd00bc92	-0.031429835
92	0xbca0feef	-0.019652812
93	0x3cb9f164	0.022698112
94	0xbb0be15c	-0.0021344041
95	0xbd77f41e	-0.060535543
96	0xbd05860d	-0.032598544
97	0xbd4a434c	-0.049380586
98	0xbca81123	-0.020515984
99	0x3b2f3e57	0.0026740038
100	0x3b549f07	0.003244342
101	0x3ca1d4aa	0.019754726
102	0xbcaf0f30	-0.021369547
103	0x3d29fff8	0.041503876
104	0x3d589d55	0.05288442
105	0xbc71858e	-0.014741315
106	0x3d0d25e6	0.03445997
107	0x3d27ccde	0.04096686
108	0xbc93d005	-0.018043527
109	0xbc490fea	-0.012271861
110	0x3d13d45b	0.03609119
111	0xbca24ad1	-0.019811066
112	0xbd176f4b	-0.03697137
113	0xbc732df6	-0.014842501
114	0xbd66d8e3	-0.056359183
115	0xbcb4e3df	-0.022081314
116	0x3d5ccb9e	0.053905122
117	0x3d74f240	0.05980134
118	0x3c506b88	0.01272095
119	0xbce1c445	-0.027559409
120	0xbd634e3f	-0.055494543
121	0xbc144225	-0.009048973
122	0x3d18920e	0.037248664
123	0x3c1d554f	0.009602859
124	0x3c3d405b	0.011550988
125	0xbd217568	-0.039418608
126	0x3d1045ee	0.03522294
127	0x3b07bdd3	0.002071251
128	0xbd78a97c	-0.060708508
129	0x3d61785f	0.055046435
130	0xbd00f7d9	-0.031486366
131	0xbc3edceb	-0.011649351
132	0x3d24ede3	0.04026593
133	0x3d173cd5	0.03692325
134	0x3d4eab13	0.050456118
135	0xbcd6c112	-0.02621511
136	0x3cdafedb	0.026732853
137	0x3c4ec020	0.012619048
138	0xbd46ccc3	-0.04853512
139	0x3cc367dd	0.023853237
140	0xbb06e60d	-0.0020583898
141	0xbd45449a	-0.048161127
142	0xbd31f8ca	-0.043450154
143	0xbd17d63b	-0.03706954
144	0xbcecef52	-0.02892271
145	0x3ca5e87c	0.020252459
146	0xbd45adcd	-0.048261452
147	0xbcfca550	-0.030840546
148	0xba7f7b6e	-0.00097458705
149	0x3c511123	0.012760433
150	0x3d5a7fb1	0.053344432
151	0xbcf6d41c	-0.030130439
152	0xbd00b153	-0.03141911
153	0xbd082b4c	-0.033244416
154	0xbd433bc8	-0.047664434
155	0xbd62d44d	-0.055378247
156	0xbb4e2a35	-0.0031458263
157	0xbc9f9c0c	-0.019483589
158	0x3d5b6db7	0.05357143
159	0xbcd64034	-0.026153661
160	0xbca832be	-0.020532008
161	0x3cbc80e1	0.023010673
162	0xba895b05	-0.0010479396
163	0x3c82c38e	0.015962388
164	0x3c18d96a	0.009329179
165	0x3d6cdf6d	0.057830263
166	0xbd268a08	-0.04065898
167	0xbd1e0489	-0.038578544
168	0xbd281749	-0.04103783
169	0x3c14945b	0.009068574
170	0x3ccb4004	0.024810798
171	0xbd45ddb9	-0.048307154
172	0xbd4ecb81	-0.050487045
173	0xbd443cc1	-0.047909502
174	0xbcd4f73e	-0.0259968
175	0x3d1c62a3	0.038180005
176	0x3d0431e3	0.03227414
177	0xbd5d5bb3	-0.05404253
178	0xbd04abec	-0.03239052
179	0xbce3842a	-0.027772982
180	0xbb090d92	-0.002091263
181	0x3d3c3c3c	0.04595588
182	0xbd7e3967	-0.062066462
183	0x3c5b3351	0.013378934
184	0x3ca3342a	0.019922335
185	0x3d205fb9	0.03915379
186	0x3ce46814	0.02788166
187	0x3d2d11e5	0.042253394
188	0xb955c983	-0.00020388332
189	0x3cd7882a	0.026310045
190	0xbce086fa	-0.027408112
191	0xbd20308f	-0.03910881
192	0x3aa0c36a	0.0012265269
193	0xbc88affd	-0.01668548
194	0xbd78af93	-0.060714316
195	0xbd016a8a	-0.031595744
196	0xbd404021	-0.046936158
197	0xbc9011a5	-0.017586539
198	0xbd4e0519	-0.05029783
199	0x3c0c1ffc	0.008552548
200	0xbc086010	-0.008323684
201	0x3cb6b968	0.022305205
202	0xbce07a58	-0.027402088
203	0x3cebdaf0	0.028790921
204	0x3c873557	0.016504927
205	0xbc669d14	-0.014075536
206	0xbd40173c	-0.046897158
207	0x3d7ff023	0.06248487
208	0xbba28bdd	-0.0049605207
209	0x3c120315	0.008911868
210	0xbd6bb47d	-0.057545174
211	0x3d28a052	0.04116852
212	0x3d18ae8e	0.037275843
213	0xbd0dfd1f	-0.034665223
214	0x3d25ee53	0.040510487
215	0x3d0490c2	0.032364614
216	0xbc67253a	-0.014107997
217	0x3ca0da6e	0.019635405
218	0xbd2698f7	-0.040673222
219	0x3d0b8758	0.03406462
220	0xbc423e7d	-0.011855719
221	0x3d6a13af	0.057147678
222	0xbb847002	-0.0040416727
223	0xbccca484	-0.02498079
224	0xbce1ef0c	-0.027579807
225	0x3caf91c2	0.021431807
226	0xbc9def01	-0.019279005
227	0xbcce3948	-0.025173798
228	0xbd197a5b	-0.037470203
229	0xbd19107e	-0.037369244
230	0xbd59b415	-0.053150255
231	0x3d701dbb	0.058622103
232	0xbd23d114	-0.039994314
233	0xbd0f2df6	-0.03495594
234	0xbd550265	-0.052004237
235	0x3d2a4c68	0.041576773
236	0xbc89f5fd	-0.01684093
237	0xbbae3df8	-0.005317446
238	0x3d7cd206	0.06172373
239	0xbd3f2d57	-0.0466741
240	0xbcdf552a	-0.02726229
241	0x3d52f8a5	0.051506657
242	0x3d275894	0.04085596
243	0xbd3b903d	-0.045791853
244	0x3c99408c	0.018707536
245	0x3d6956d6	0.05696758
246	0xbd6131da	-0.054979183
247	0x3d3d3af4	0.0461988
248	0x3bb0c263	0.0053942665
249	0x3c75ad4b	0.01499493
250	0x3be81e22	0.0070836702
251	0x3d27c5ab	0.040959995
252	0xbba6480b	-0.005074506
253	0xbd77bf2b	-0.060485046
254	0x3c48fb97	0.012267015
255	0x3d5ea4d2	0.054356404
